models/advanced_lstm.pt (torch, 548291 bytes, 18 tensors)

lstm.weight_ih_l0 f4 [256, 68]
000000 e5 47 65 bd 79 81 1f be e2 c0 c3 3c fb 55 7c 3d
       -0.055976767 -0.15576734 0.023895685 0.061605435
000010 40 04 49 bd 16 71 b0 3d 92 c5 07 be 27 c9 b3 bd
       -0.04907632 0.086153194 -0.13258961 -0.08778601
000020 99 88 0d be b9 79 9d 3c b6 75 ae bc 5a b5 b0 bc
       -0.13821639 0.019223081 -0.021296363 -0.02157085
000030 00 60 a5 3d 3f 8e e3 3d b5 19 5d bd 93 50 2f 3b
       0.08074951 0.11111116 -0.053979594 0.0026750907
000040 6a cb 02 be 41 d8 69 bd e1 14 91 bd da d6 86 bd
       -0.12772909 -0.057091 -0.070840605 -0.065839484
000050 e6 5b 9c bc e4 0b 8c 3d ff e0 14 bd 06 50 04 be
       -0.01908679 0.068382055 -0.036347385 -0.12921152
000060 8a a0 7c bc ed dd 3d bc 68 50 3b bd 43 7d 0a 3d
       -0.015419135 -0.011588556 -0.04573098 0.033810865
000070 13 e6 90 bc 54 74 43 bd b7 29 ce bd 5f c6 fd bd
       -0.017687833 -0.04771836 -0.1006655 -0.12391352
000080 3e 31 03 3e 36 90 6f 3c 07 a2 ca 3b 54 be 77 3d
       0.12811753 0.014621785 0.006183866 0.060484245
000090 fe 3b 5a bd 6b 2c 5d 3d b1 97 c9 3d 9e e2 52 bd
       -0.05327987 0.05399744 0.09843386 -0.05148565
0000a0 9d 4d 18 3e 00 91 a6 bd 7a ed 07 bd 27 9e 65 3d
       0.14873357 -0.08133125 -0.03318546 0.05605903
0000b0 b4 cf 8e 3d 35 90 1a 3d c7 c1 59 3c a8 0f 33 3c
       0.0697321 0.037735183 0.013290829 0.010929026
0000c0 02 4d ea 3d 9c c7 94 3d fb 05 33 bd 3f 73 5f bc
       0.11440469 0.07264635 -0.043706875 -0.013638317
0000d0 9c b6 f5 3d 79 3c ce bc 14 c2 53 3d 13 89 1f bd
       0.119977206 -0.02517532 0.05169876 -0.038949084
0000e0 7c 63 8a 3d 9e 80 48 3c 73 73 ad bd cf 58 81 3d
       0.067572564 0.012237696 -0.08469286 0.06315767
0000f0 0c e1 66 3b 0a 5b 59 bd b6 1f 16 3e 9d 42 57 3d
       0.0035229353 -0.053065337 0.14660534 0.05255376
000100 ce 46 c9 3d 42 03 b9 3d c2 32 b5 3d 9b bc 0b 3e
       0.09827958 0.090338245 0.08847572 0.13646166
000110 b5 a4 f4 bc 91 e8 cb 3d d1 7e ca bd 55 7a 46 3d
       -0.029863695 0.09956468 -0.098874696 0.04845651
000120 ce 43 93 bc ca 70 d6 3c 19 31 c3 3c 59 22 05 bb
       -0.017976668 0.026176829 0.023827123 -0.0020314662
000130 2f cf 9e 3d a4 50 bd 3d 74 d9 b6 bd 00 a7 a2 bc
       0.07754361 0.092438966 -0.08928195 -0.019855022
000140 a0 39 e2 3c d3 3f 59 bd 6a b9 5b 3d 8a 06 59 3c
       0.027615368 -0.053039383 0.05364362 0.013246188
000150 58 16 d6 bd 3e b4 0f 3e fa f7 10 be d7 63 77 bd
       -0.104534805 0.140336 -0.14157096 -0.06039795
000160 f5 35 cf 3c 47 a5 05 bd ff fe bd bd a0 53 87 bd
       0.025294283 -0.032628324 -0.09277152 -0.06607747
000170 06 ef 8b bd 7b 5f 35 3d 0b f8 8c bc 90 62 82 bd
       -0.068326995 0.04428051 -0.01720812 -0.063664556
000180 db 52 cc 3d d0 68 0b bc b7 f9 eb 3d a6 23 b5 bd
       0.09976741 -0.008508876 0.11522239 -0.0884469
000190 da 4a a1 3c 33 02 ba 3d a1 0f b1 3d 6c eb ac 3d
       0.019689012 0.09082451 0.08645559 0.08443341
0001a0 65 fa 0e 3c 93 c7 06 bc 90 9f 14 3e 58 2a ef 3c
       0.008726691 -0.008226293 0.14513993 0.029194996
0001b0 bc f5 ab 3d a7 03 12 3e 28 86 76 3c bb 04 d7 3a
       0.083964795 0.14259206 0.015046634 0.0016404608
0001c0 e2 7e 3e 3d b4 24 90 3d 8d b4 f1 bc 9b 3f 1f bc
       0.046507724 0.070382506 -0.029505039 -0.009719755
0001d0 c5 a0 c0 bd 07 78 f8 b8 36 c6 41 bd fa 88 45 3d
       -0.09405664 -0.00011847918 -0.04730817 0.048226334
0001e0 db 49 b1 3d 23 ad 9d 3d 2b 77 1e 3d 98 7a aa bd
       0.08656665 0.07699039 0.038687866 -0.08324164
0001f0 7e e2 17 3e 6b e5 63 bd 05 28 96 3d 8c 9f be 3d
       0.14832494 -0.055638712 0.07331852 0.09307775
000200 91 b8 c4 bd 20 43 ef 3c 25 f9 91 3d b8 8e d1 3d
       -0.09605516 0.029206812 0.07127599 0.102322996
000210 15 4b a3 bc 03 30 5e 3c e7 3b ac 3c 2c 98 19 bd
       -0.019933263 0.013561252 0.021024657 -0.037498638
000220 ab 69 dd bd c4 ad 85 3d 51 a1 a1 bb 30 71 8c 3d
       -0.1081117 0.06527284 -0.0049325605 0.06857526
000230 e0 12 ba bd 9b 4d 3f bd 29 46 16 3d 24 53 97 3c
       -0.09085631 -0.04670487 0.036688004 0.018472262
000240 12 45 a4 bd 9e 84 5f 3c 29 0f 53 bd fd f8 96 bd
       -0.080209866 0.013642458 -0.05152813 -0.073717095
000250 aa fd cf 3d e0 c7 99 bd db a8 40 3d 67 4f 04 3c
       0.101558045 -0.07508826 0.047036033 0.008075572
000260 db d9 ff bc 10 b4 b0 bd 5c 54 98 3d 1d 7d 89 3d
       -0.031231811 -0.08628094 0.07437965 0.067133166
000270 8e 0b c5 bd fb 37 72 bd bf 25 a1 3d 4e b8 4a 3d
       -0.096213445 -0.05913542 0.078685276 0.049492173
000280 94 c9 dd bd bf 6d d5 bd fa 0a 00 3c 71 df 88 3d
       -0.108294636 -0.10421323 0.007815117 0.06683243
000290 cd 43 62 bc ea 5e a2 3d 70 09 8a 3d f7 89 e9 3d
       -0.01381011 0.0792826 0.06740081 0.11403268
0002a0 75 3c 9a bd 5c e7 4d 3d ec 27 fa 3c 76 07 18 bd
       -0.075310625 0.05026947 0.030536614 -0.03711649
0002b0 e8 5b 8e 3d 72 f1 ac bd 1c 6b 99 3d 0e 8d c3 bd
       0.069511235 -0.084444895 0.074911326 -0.095483884
0002c0 60 ef 89 3d b1 a6 bb 3b 6c 55 6f bd a4 7c ca 3c
       0.0673511 0.0057266583 -0.058431074 0.024717636
0002d0 18 81 1b 3e ba 7c 92 bd 87 36 41 bd 71 46 13 3a
       0.15185964 -0.07152696 -0.047171142 0.00056181016
0002e0 20 b9 df bc 13 1d 45 3d b0 6b 61 3c 60 91 a2 3d
       -0.027309954 0.04812343 0.013758585 0.07937884
0002f0 3a ba 08 3d c1 28 3c 3c f7 d3 ec 3d b4 ba 6d bc
       0.033380724 0.011484326 0.115638666 -0.0145098455
000300 83 c5 43 3c 7d fa 09 3e eb f5 12 3d 43 1a ce 3b
       0.011948946 0.1347446 0.035879057 0.0062897517
000310 b1 88 f3 3c 84 48 a8 3d ce 86 af 3d 94 03 c6 bd
       0.029728265 0.08216956 0.08570634 -0.09668651
000320 22 63 d2 3d ff cf b3 bb 4c 37 7a ba a8 8a 02 bd
       0.10272814 -0.0054874416 -0.0009544983 -0.031870514
000330 23 f5 0f 3d 9c 01 0f be 34 a9 e1 bd c8 50 7e bd
       0.03514589 -0.13965458 -0.11018601 -0.062088758
000340 2c da bf bd a0 89 92 3b fe 61 3d bc e8 57 b4 3d
       -0.09367785 0.0044719726 -0.011559008 0.08805829
000350 08 29 74 3d 22 43 33 bd 26 43 ed bc 81 31 85 3d
       0.059609443 -0.043765195 -0.028962683 0.06503583
000360 52 fc df bd d1 da c7 bd 42 62 75 bd c5 11 d5 bd
       -0.10936798 -0.09758533 -0.05990816 -0.1040378
000370 e2 c6 9f 3b 31 13 b6 3c df cb 39 bd b5 56 0b be
       0.0048760036 0.022225948 -0.045360442 -0.13607295
000380 8c e8 08 3d 4e 5f 52 bb 31 21 c6 3d 15 6b 3a 3c
       0.0334249 -0.0032100263 0.096742995 0.011378069
000390 76 99 a6 bd c4 cc bd bc a1 57 d7 bc e0 18 a0 bd
       -0.08134739 -0.023168929 -0.026286902 -0.078172445
0003a0 1a db 52 bd 0c 81 d6 bc ad e6 8d bd 20 c0 c2 bd
       -0.051478483 -0.026184581 -0.069287635 -0.09509301
0003b0 25 1f e7 bd 11 a5 cf bc 50 5d e7 3d 87 5f 86 bd
       -0.11285237 -0.025347264 0.11297095 -0.06561189
0003c0 9f 6e 88 bd c0 b9 af 3d 4d a3 8f bd 55 e6 f6 3d
       -0.06661724 0.08580351 -0.07013569 0.12055651
0003d0 9c ac 27 bd 07 2f 3f 3d 54 15 2d 3d bc c5 12 3d
       -0.040936098 0.04667571 0.04225667 0.035833105
0003e0 1a 0b 15 bc 85 9f b1 bd 7e 8a d2 bd 36 87 b3 3d
       -0.009096885 -0.08673004 -0.102803215 0.08766024
0003f0 fd 06 e6 3c c5 9f 81 3c 91 66 c5 3d 4a d2 99 3d
       0.028079504 0.015823254 0.096387036 0.075108126

lstm.weight_hh_l0 f4 [256, 64]
000000 29 35 36 bc d8 58 6e bd 1f b3 d3 3b a4 c4 e5 bd
       -0.011121073 -0.058190197 0.006460562 -0.11219147
000010 1b d6 65 bd 5c 6a ec bd 92 d6 51 bd cc a9 70 3d
       -0.05611239 -0.11543724 -0.05123002 0.05875568
000020 fd 9a 19 3b 74 fb ba 3d 49 49 8a 3d 20 3c 5b bd
       0.0023438327 0.09129992 0.06752259 -0.053524137
000030 7b be a3 3d af 97 ab bb 6f b0 19 3d a4 02 26 be
       0.07995316 -0.005236588 0.037521776 -0.16211945
000040 01 85 7e bc 01 df 36 3d 6e 69 85 bc 69 70 2b 3d
       -0.01553464 0.044646267 -0.016285624 0.04185525
000050 f1 e1 a0 bd 0a 65 1a 3e cf 00 21 3c 0c ce d3 bd
       -0.07855595 0.15077606 0.009826853 -0.10342035
000060 51 96 b3 3c ec 6a d6 bd b4 19 d7 3d 94 bb 29 3b
       0.021922262 -0.104696125 0.10502949 0.0025899159
000070 9c e4 10 3e cb aa 08 3e 7d 12 c5 3d 3e b8 a7 3d
       0.14149708 0.13346402 0.09622667 0.08189438
000080 ec 2b 12 3d 6f c5 23 ba af 92 02 3e a7 a1 47 bc
       0.03568642 -0.00062473764 0.12751268 -0.012184537
000090 81 fe 96 bd 08 46 ab 3d 52 fa ea 3d ac 7a 74 bd
       -0.073727615 0.08362967 0.11473526 -0.0596873
0000a0 b1 0d 92 3d 73 d1 69 bd fb da 1a bb 20 e9 04 be
       0.07131518 -0.057084512 -0.0023629058 -0.12979555
0000b0 af e3 90 bc 16 d1 22 bd 14 29 9d 3c d3 9e f8 bd
       -0.017686693 -0.03975018 0.019184627 -0.12139668
0000c0 ab 2b 1b 3e d3 f7 95 bd 6c 41 a9 3d 48 e6 b9 bd
       0.15153377 -0.07322659 0.08264431 -0.09077126
0000d0 fb c2 44 bd 1d 86 a5 3b 9a fb 14 3e 0f 70 48 bd
       -0.04803751 0.005051388 0.14549103 -0.048934992
0000e0 63 9c 8b 3d 67 d7 a0 b9 b9 90 4f 3d 0d f7 99 3d
       0.06816938 -0.00030678065 0.050675128 0.07517824
0000f0 ce 9c f5 bb 3d c6 5d 3c d0 93 47 3d 79 18 7e 3c
       -0.007495499 0.013536033 0.04872495 0.015508764
000100 cb 8e 00 3d c1 80 0c be 90 95 b1 3d 7e cb 9a bd
       0.031386178 -0.1372099 0.08671105 -0.07558344
000110 0d c5 e7 3d 48 68 01 be 9c 24 a9 bd 67 b7 28 3d
       0.11316881 -0.12637436 -0.08258936 0.04119053
000120 60 c1 88 bc 47 3c 9b 3d f3 0f 04 3e ee 80 1a 3d
       -0.01669377 0.07579856 0.12896709 0.037720613
000130 0d 34 a0 bc f4 6b 98 bd 5f f1 6f bd e3 32 66 3d
       -0.01955607 -0.074424654 -0.0585798 0.056200873
000140 a1 67 e3 3d dd 30 08 be 89 a8 c5 bd 61 1d f6 bb
       0.1110375 -0.1329989 -0.09651286 -0.0075108265
000150 f9 5b f0 3c d4 a1 84 3d f3 bf 09 3e c1 59 d0 3c
       0.029340731 0.06476179 0.13452129 0.025433423
000160 ad c0 f6 3b 27 94 27 bd 66 57 86 bc f0 aa a8 3d
       0.007530293 -0.040912773 -0.016399097 0.08235729
000170 a9 e9 83 3b 99 af ac 3d 53 4b 8c 3c bb fd f3 3d
       0.004025657 0.0843193 0.017125761 0.119136296
000180 e7 1d 17 3d ab 21 67 bd cd 6b 06 be aa 8a 90 bd
       0.03689375 -0.056428593 -0.1312706 -0.07057698
000190 30 16 0b be c3 5f 8d 3d ad 8b 49 3d 38 f7 62 3d
       -0.13582683 0.06903031 0.04920547 0.055411547
0001a0 a2 7a 9e 3d 62 36 eb bc 20 37 ee 3d 9f c1 14 bd
       0.07738234 -0.028712455 0.11631608 -0.036317464
0001b0 e8 ae 09 3c 2a bd a5 3c 3a da ee bd 78 f2 be bc
       0.008403517 0.020231802 -0.11662717 -0.023308977
0001c0 c9 ce 6b bc 77 2c a1 39 9b 29 46 3d 3b 49 bd bd
       -0.014392563 0.00030741442 0.04837952 -0.09242483
0001d0 c6 48 8c bb 30 e9 02 be 7a 6f e0 3d 67 0e 85 3d
       -0.004281136 -0.12784266 0.109587625 0.06496888
0001e0 b2 9b 03 bd ca 1f d5 bd 47 55 11 3e d8 97 b2 3d
       -0.032130904 -0.10406454 0.14192687 0.08720368
0001f0 a0 9b 30 3d d1 fd 16 3e 3c 4d 0e be 46 86 4f 3d
       0.043117166 0.14745261 -0.1389665 0.050665163
000200 d6 7f a3 3d 1f c7 0d be 0f 66 88 bd 8d 2a 75 3d
       0.07983367 -0.1384549 -0.06660091 0.059855033
000210 f2 63 00 3c 73 28 ae bc b1 cc a6 bd ad 0c eb 3c
       0.007836329 -0.021259522 -0.081445105 0.028692568
000220 68 9d 0f be c6 b5 af 3d 54 d6 28 bd 31 14 23 3e
       -0.1402489 0.085795924 -0.041220024 0.15925671
000230 4f e1 12 bc d9 73 21 3e c1 51 c7 bd 3b 27 ce bd
       -0.008964851 0.15766849 -0.0973239 -0.10066076
000240 ef 47 a2 bd 78 ab ee bc 2a 06 11 be d8 b9 14 3b
       -0.079238765 -0.029134497 -0.14162508 0.002269378
000250 48 a9 77 bc 5c e8 cf 3d 44 49 24 3e c9 e7 c9 bd
       -0.015116043 0.10151741 0.16043574 -0.09858663
000260 29 5b 01 bc 6c e0 e5 bd 19 a7 54 bd e6 33 ef bd
       -0.007895269 -0.11224446 -0.05191717 -0.11679821
000270 5f a9 ce 3d 2d 2e cf bc 8f 6f ed 3d 2f 51 15 bc
       0.10090899 -0.025290573 0.11593544 -0.009113594
000280 03 1e a3 3d 4d 71 91 3d eb 8b 86 bb 27 28 0c bd
       0.07964709 0.071016885 -0.004106035 -0.03421798
000290 d2 c1 26 bd 72 3c 1a 3e 49 77 5a bd f9 b2 54 3a
       -0.040712185 0.1506212 -0.053336415 0.0008113827
0002a0 91 6d a2 bd 56 02 e3 3d c1 f6 2c bd 4a e9 83 3d
       -0.079310544 0.1108443 -0.04222751 0.06440981
0002b0 c8 9b 24 bd f5 e8 f5 3d 1d 14 38 3d 7c 1f 66 bd
       -0.040187627 0.12007324 0.044941057 -0.05618237
0002c0 e8 6f 23 3d fb ef a6 bc c7 dc a4 3d 6b 4f 31 bd
       0.039901644 -0.020378103 0.080499224 -0.04328863
0002d0 32 ab 98 bd 57 46 b3 bc 35 d4 ba bc 96 81 18 3e
       -0.07454528 -0.021884127 -0.022806266 0.14893183
0002e0 b9 7b ca bd e6 4f 8b 3d 90 6d af bc 94 95 ce bd
       -0.098868795 0.06802349 -0.021414548 -0.100871235
0002f0 64 e7 e5 3b 4a e8 0c 3d 86 a2 92 bc 90 b3 7d bd
       0.0070161093 0.034401216 -0.017899763 -0.061938822
000300 57 cf 14 3d 3d da 23 be 8e 82 b6 3d fd a6 72 39
       0.036330547 -0.1600122 0.0891162 0.00023141126
000310 3c e4 a7 3d 32 d9 b8 3d 8c 34 25 be fa 91 d4 3d
       0.08197829 0.09025802 -0.16133326 0.10379405
000320 df 83 9e bd 23 89 92 bd 24 e4 8e 3d ac e8 fa 3d
       -0.07739996 -0.07155063 0.06977108 0.1225141
000330 f2 a6 63 bd e9 82 a6 3d 40 f2 08 be f9 c4 03 bd
       -0.055579133 0.08130438 -0.13373661 -0.03217027
000340 71 c3 37 3d d4 c1 4a 3d 21 ac 9c bd 84 bf e8 bd
       0.04486412 0.049501255 -0.076500185 -0.11364654
000350 68 c9 70 bd 4e a6 b4 3d b7 45 a9 3d 46 ba 29 3e
       -0.058785826 0.088207826 0.0826525 0.16574964
000360 1c ab 81 bc 0d 76 82 3d 36 39 f4 3d f1 0d 99 bd
       -0.015828662 0.06370173 0.119249746 -0.07473362
000370 97 c5 7a 3d 5c 88 90 3c 0a 72 d5 3d e3 75 72 ba
       0.061223593 0.017643146 0.10422142 -0.0009249134
000380 d8 1c 14 be d2 55 94 bd 00 67 28 bb d3 46 13 3d
       -0.14464128 -0.072429314 -0.0025696158 0.035956215
000390 db 40 0f be ad 7e 74 bd ee be ad bd 2e 35 b6 3d
       -0.13989584 -0.05969112 -0.084836826 0.08896862
0003a0 0e c1 ed 3d 94 63 e2 bc d6 f0 90 3c 96 ca 05 be
       0.11609088 -0.027635373 0.017692965 -0.13065562
0003b0 c3 3d 83 3d 57 f4 fb 3d 48 12 3b 3b 1d 32 84 3c
       0.064082645 0.123024635 0.0028544832 0.016137177
0003c0 c1 0a bf bb 3b ee e8 bd 22 8a 1f 3c f7 fd 0c be
       -0.0058301394 -0.11373564 0.009737523 -0.13768755
0003d0 3f 45 32 bc 1c 40 c6 bd 45 e8 2d 3d ef dc b4 bb
       -0.010880767 -0.09680197 0.042457838 -0.0055195014
0003e0 1d 17 ff bd 3a 24 ce bd 11 35 9a bd 5d d5 c7 3d
       -0.124555804 -0.100655034 -0.07529653 0.09757493
0003f0 c4 7d 33 3d de ba 9f 3d 51 21 0c be 49 f5 f8 3c
       0.04382111 0.07799314 -0.13684584 0.030390399

lstm.bias_ih_l0 f4 [256]
000000 72 49 06 3d 78 9e 42 bd 9e e7 82 bd 28 fb be bc
       0.032784887 -0.04751441 -0.06391834 -0.02331312
000010 bc 79 92 bc 7a 33 79 bd 59 23 1a 3e 46 dd 57 bb
       -0.017880313 -0.060840108 0.15052547 -0.0032938286
000020 80 e8 10 3d 5e b7 83 3d 62 9b 04 bd ca 7a a2 bc
       0.03537798 0.06431459 -0.032374747 -0.019833941
000030 8e 44 cb 3d b6 f1 b6 3b e1 98 e1 3d be b5 55 bd
       0.09925185 0.0055830134 0.110154875 -0.052175276
000040 a9 1b 30 3d fd 53 b6 bc b5 9e 53 3d 25 26 41 3d
       0.04299513 -0.022256846 0.051665027 0.047155518
000050 96 42 be bd 64 07 38 3d 08 0f ea 3d 13 cb da 3d
       -0.09290044 0.044928923 0.11428648 0.106832646
000060 5a 6c f6 3c f6 a9 ff 3d f8 3f 95 3d 76 35 0b 3e
       0.030080963 0.12483589 0.07287592 0.13594612
000070 69 f1 23 bd 24 51 f6 3d 8d 81 5f bd f5 ed 97 3d
       -0.04002515 0.12027195 -0.05456691 0.074184336
000080 ec 6f d9 3d 2f bd 18 3e 66 7a 0f bd bf c3 f2 3d
       0.106170505 0.14915918 -0.035028838 0.11853742
000090 3d 65 3d bd 12 e1 4b 3d 5f 0e ab 3d b3 a9 03 3d
       -0.046239126 0.04977519 0.083523504 0.03214426
0000a0 92 06 c0 bd c1 48 fb 3d 8f dd c5 3c e1 f7 9c 3d
       -0.09376253 0.12269736 0.024153499 0.07664467
0000b0 5b 17 d0 3c d8 e6 d9 3d 97 bc 01 3e 93 d0 fb 3c
       0.025401762 0.10639733 0.12669598 0.030739104
0000c0 3e ec c5 3d 3e 60 29 bd ae c7 2b 3d 6c e2 91 bd
       0.096642 -0.04135155 0.041938476 -0.07123265
0000d0 da d1 10 3e ed 27 0e 3e e8 b0 b5 3d 5a 78 2b bd
       0.14142552 0.13882418 0.08871633 -0.041862823
0000e0 6a aa 09 3e cf fc 97 3d 9d 77 2c bd f4 f5 3b bd
       0.13443914 0.07421266 -0.04210626 -0.045888856
0000f0 a5 cf 33 3d a5 86 0c 3d ce 5a 94 3d e8 8f 5f 3d
       0.043899197 0.034308095 0.07243882 0.0545806
000100 98 7c 0b 3e ae ae 06 3e b3 64 24 3e a1 f1 b6 3d
       0.13621747 0.13152573 0.16054039 0.08932806
000110 83 19 d2 3d a3 2e 1a 3e fb 77 1d 3d 60 75 82 3d
       0.10258772 0.15056853 0.0384445 0.06370044
000120 14 f2 5e bc 2d 70 9b bd f0 59 f2 bc 65 c5 b8 bd
       -0.013607521 -0.07589755 -0.029583901 -0.09022025
000130 3e c2 3f bd 5a db 64 bd 77 9a 0b 3e cb f1 49 3d
       -0.046816103 -0.055873252 0.13633142 0.049302857
000140 6d 99 c5 3c 44 b0 98 3d 0e cc b2 3d 2e 73 a5 bd
       0.02412101 0.07455495 0.087303266 -0.080786094
000150 a7 bc a7 3c 64 f6 8a bc 42 55 87 bd ee d4 93 bd
       0.020475699 -0.016963191 -0.066080585 -0.072183475
000160 23 57 27 bd c7 38 93 bd 4e 0d e4 3c 53 62 98 bd
       -0.040854584 -0.07188564 0.027838375 -0.07440629
000170 50 5c b6 3d fa 0e e7 bc 5b ba bb 3d 97 2d cc 3d
       0.08904326 -0.028205384 0.09166404 0.09969633
000180 30 6a bc bc 7e e6 96 3d ef a4 f1 bd ac f6 18 3e
       -0.022999853 0.07368182 -0.11799037 0.14937848
000190 f8 5d 0e 3c 67 d2 cb bd bc 13 e0 3d 32 af ae bc
       0.008689396 -0.099522404 0.10941264 -0.021323774
0001a0 ba 22 cb 3c 5d 79 ac bd 50 94 2c 3c 69 22 93 bd
       0.024796832 -0.08421586 0.010533407 -0.071842976
0001b0 c0 17 98 bc 03 dd 52 bd f4 42 c3 bd 72 df 87 bd
       -0.018566012 -0.051480304 -0.09534255 -0.06634416
0001c0 ab e1 04 bd 6e 91 ba bc 55 b4 be 3d 96 0e a5 3d
       -0.032441776 -0.022774424 0.09311739 0.08059423
0001d0 b2 00 f5 3d 4c 79 9c bc 12 89 1a bd 04 52 58 bd
       0.11963023 -0.019100808 -0.037728377 -0.05281259
0001e0 62 0e dd bc 28 ab 7f 3c 79 81 70 3a 92 ed 7d bc
       -0.026984397 0.015604772 0.00091745664 -0.015498536
0001f0 7f 26 f3 3d c5 3b ca 3c 94 3e 32 3d ee 79 28 3d
       0.11872577 0.024686703 0.04351671 0.041131906
000200 80 aa 9d bd 26 56 cc bd 7d aa ac bd 96 eb 22 bd
       -0.07698536 -0.09977369 -0.084309556 -0.039775454
000210 a9 84 0b 3c a9 20 9e bc 08 47 e0 bd 3a 80 22 3d
       0.008515515 -0.019302683 -0.10951048 0.039673068
000220 4b 20 69 bd 55 cf ff bd 3d cd ac 3d bf cc 24 bd
       -0.056915563 -0.12490717 0.084375836 -0.040234324
000230 ce d0 be 3d 69 63 9e 3c 32 52 a4 3d 3c 4b 05 be
       0.0931717 0.019334512 0.0802349 -0.13016981
000240 42 20 46 bd dd 1a e7 bd c7 e2 d6 bb c3 51 99 3d
       -0.048370607 -0.11284421 -0.0065577957 0.07486298
000250 a0 e2 8b bd 53 e6 05 bb 00 ad 61 3d 45 1a 79 bd
       -0.06830335 -0.0020431473 0.055096626 -0.06081607
000260 8f e4 e8 bd 6f 04 16 bd eb 29 ef 3d d5 57 cd bd
       -0.11371719 -0.036625322 0.11677917 -0.10026518
000270 cd a7 03 3e f2 01 6e bd dd c5 dc 3d 1a 8b bc bd
       0.1285698 -0.058107324 0.10779927 -0.09206219
000280 b3 3e de bd bf d6 4c 3d 52 7a 8c 3c 14 13 0b be
       -0.10851803 0.050009485 0.01714817 -0.13581496
000290 25 95 ce 3c da 0c b1 bc 6f 0a 19 3b 15 59 82 bc
       0.025217602 -0.021612573 0.0023352166 -0.015911618
0002a0 15 3e 82 3c 19 95 87 ba 8d ca a9 bd d8 d4 21 3c
       0.015898744 -0.0010344117 -0.082905866 0.009877406
0002b0 87 2b 95 3d c0 e0 f1 3d d0 ac ad bd f7 e6 bc bd
       0.07283693 0.11810446 -0.08480227 -0.092237405
0002c0 e3 7a 52 3c 6d 46 7a 3d f0 bb 84 bd 0a f4 1e be
       0.012846681 0.06110232 -0.06481159 -0.15522781
0002d0 d7 39 09 bd 71 61 f9 bd 84 d1 06 3d 1c f6 a7 3c
       -0.033502426 -0.121767886 0.032914653 0.020503096
0002e0 d4 fa c5 3d 5b 77 cb bc e4 55 e3 3d 12 a4 9f bd
       0.09666982 -0.024837187 0.11100367 -0.07794966
0002f0 20 f0 02 be d7 35 83 bd f6 e8 f6 bd 31 24 ad 3d
       -0.12786913 -0.064067535 -0.120561525 0.084541686
000300 6f 02 aa ba 9b a9 8d 3d 72 e4 29 3e ca 85 51 bd
       -0.0012970696 0.06917115 0.16591051 -0.05115298
000310 d3 94 0a 3e 48 ff c8 bc db 0b 37 bd d4 8e 85 bd
       0.13533334 -0.02453579 -0.04468904 -0.06521383
000320 f4 3e 3c bd 78 cd ac bd 58 41 ec bc c3 fb 02 3e
       -0.045958474 -0.084376276 -0.028839752 0.12791352
000330 52 a1 a9 3d 02 d9 02 bd 32 d8 75 3c ce 7c 1d 3e
       0.082827225 -0.031945236 0.015005158 0.1537964
000340 e8 ca 16 3e 54 8a bb 3c 5e f6 81 3d 4c ae 2a 3e
       0.1472584 0.022893108 0.06345819 0.16668051
000350 b4 53 05 bd 30 4c 08 3e 19 44 07 3e d7 f6 90 bd
       -0.03255053 0.13310313 0.13209571 -0.07078331
000360 cb fe e2 3d 3c 46 85 bd 43 80 77 bd d7 9e 15 3e
       0.11083754 -0.06507537 -0.060425054 0.14611374
000370 ee 1d 71 3b 60 fc 09 3e 1c 42 2c 3d c5 8e b1 3d
       0.003679152 0.1347518 0.042055234 0.08669809
000380 29 51 22 3d 92 a7 60 3d b5 8f 13 3c a9 9e c0 3d
       0.03962818 0.054847308 0.00900643 0.09405262
000390 a0 6a 60 bc 5b c2 b8 3b 53 24 44 3d db 63 86 bd
       -0.013697296 0.0056384034 0.047886204 -0.06562015
0003a0 e9 fb b4 3d 25 89 f9 3d 25 74 97 bd 83 f9 f3 bc
       0.088371105 0.12184361 -0.073952 -0.029782062
0003b0 b8 09 8f bd 03 b0 f5 3d f0 5c f3 3c ac 28 ea 3d
       -0.069842756 0.11996462 0.029707402 0.11433539
0003c0 fa dc 82 3d 33 82 ef 3d 21 e2 6f 3c 4c ca 88 bd
       0.06389804 0.116947554 0.014641316 -0.0667921
0003d0 53 59 ee 3a 7b 15 a4 3d a1 6b fb 3d 1b 43 0a 3d
       0.001818458 0.080119096 0.12276388 0.033755403
0003e0 6d f0 85 bb f0 e5 35 3d e6 56 47 bd 18 97 6d 3c
       -0.004087499 0.04440874 -0.048666857 0.014501356
0003f0 0e 30 05 3d 97 06 05 3e 1f b6 a8 bc f1 c1 1e bd
       0.03251653 0.12990795 -0.020594655 -0.038759176

lstm.bias_hh_l0 f4 [256]
000000 cd 3d 0b 3e f0 8b b2 bd a8 21 85 bd 93 b5 6b bd
       0.13597794 -0.08718097 -0.0650056 -0.05754621
000010 78 31 5e 3d 56 d8 a2 3d 55 a3 cd 3d 4e e3 9e 3c
       0.054246396 0.07951419 0.10040919 0.019395497
000020 f0 6e 39 3c e2 db a1 3b d7 98 bf bb 8e 68 e5 3d
       0.0113179535 0.004939542 -0.0058470774 0.11201583
000030 1a d6 ba 3d d0 26 d1 bc 2f 89 d9 3d 0f 02 1e bd
       0.09122868 -0.025531203 0.10621869 -0.038576182
000040 c4 8d ba 3d 56 0d ef 3d 88 5a 81 3d b0 5c 91 bd
       0.09109071 0.116724655 0.063160956 -0.07097757
000050 ca e0 86 bd 3c 8d 20 3d 8c 8e 4f bd a4 71 04 3e
       -0.06585844 0.03919719 -0.050673053 0.12933975
000060 c4 08 95 3d ba 54 bc 3d 59 01 ea 3d c4 b9 de 3d
       0.072770625 0.09195848 0.11426038 0.10875276
000070 61 f8 1c 3e 78 5f ba 3d 4d 61 1b bd 6d c0 09 3d
       0.15329124 0.091002405 -0.03793459 0.033630777
000080 5c fb 03 3e 0a d9 8a 3d b0 64 9c bd 25 b1 26 bd
       0.12888855 0.06779678 -0.07636392 -0.040696282
000090 61 83 9d 3d 94 c2 d1 3d 07 b8 e1 bd 4e d8 f6 3c
       0.07691074 0.10242191 -0.110214286 0.030132439
0000a0 f7 27 00 3d 41 31 f3 3d 18 e6 e3 3c 8e 25 86 3c
       0.031288113 0.11874629 0.027819678 0.01637533
0000b0 ef 4d 64 bd a7 ff a5 3c 5e 2d c7 3d 81 8c c8 3d
       -0.055738386 0.020263506 0.0972545 0.09792424
0000c0 67 5b 3f 3c 96 db 05 3e dd e1 0c 3d 3b 8b 1d 3e
       0.011679507 0.13072047 0.034395088 0.15385143
0000d0 9e 77 a5 3d 0c 28 45 bd 07 31 4b bc 65 59 b0 3d
       0.08079456 -0.048133895 -0.012401826 0.08610801
0000e0 68 7f d5 3d 20 8c 1e 3e 49 3f cd 3d 6c 60 81 bd
       0.104246914 0.15483141 0.10021836 -0.06317219
0000f0 3e a2 a9 bd 43 a3 b6 3c 08 4f 88 3d 35 a1 19 3e
       -0.08282898 0.022294646 0.06655699 0.15002902
000100 0e ea 8c 3c c9 d2 b2 bd 1f 66 23 3e 4d b6 a1 3c
       0.01720145 -0.0873161 0.15956925 0.019740248
000110 19 62 79 3d 0a d0 11 bd 2b ce 55 bd 94 2d bf bd
       0.06088457 -0.035598792 -0.05219857 -0.09334865
000120 5c 84 d8 bb 46 49 bf bc 17 88 2a bc cf 47 13 3e
       -0.0066075753 -0.02335037 -0.010408423 0.14382862
000130 af 9e d4 3d cc 84 20 bd 52 49 15 3e 37 af 10 3d
       0.10381829 -0.039189145 0.1457875 0.035323348
000140 98 b9 6f bc c4 8f f1 bc 1b 43 61 bb ca 75 11 bd
       -0.014631651 -0.029487498 -0.0034372273 -0.035512723
000150 4f be c1 3d c3 70 fb 3d 1c d8 b2 3d c7 e1 da 3c
       0.094601266 0.12277367 0.08732626 0.026718987
000160 ce 3d 1f bd bb aa 8e bb a2 1f 01 3e f7 d3 db 3d
       -0.0388773 -0.0043538488 0.12609723 0.107337885
000170 92 ce 27 bd 78 8b 86 3d b9 88 69 bc 31 7b ab bd
       -0.040968485 0.0656957 -0.014253789 -0.08373106
000180 b0 66 de bd de 63 d0 3c d7 4e db 3d ca 48 c2 ba
       -0.1085943 0.025438245 0.10708397 -0.0014822718
000190 ad ee 4b bd 84 e7 cb bc be 8f 4e bd fb ab 9a bc
       -0.049788166 -0.024890669 -0.050430052 -0.018880835
0001a0 0b 0e 15 bd 1c 93 71 bd e9 20 a7 bc b4 ab 6d 3d
       -0.036390346 -0.058978185 -0.020401435 0.058025077
0001b0 3c 65 1c 3e ee 6a 9a bd a8 4d 9e bd ca cd f5 3d
       0.15272993 -0.075399265 -0.077296555 0.12002142
0001c0 82 a1 0f bd 69 96 19 3e 5c 8d 34 bd cf 55 99 3d
       -0.035066135 0.14998783 -0.044080123 0.0748707
0001d0 54 1f 21 bd 92 8b 8b bc 5f dc 77 bc 40 30 38 bd
       -0.039336517 -0.017034326 -0.015128224 -0.04496789
0001e0 5d d9 6b bd 38 2b 11 3c 0f b8 93 3d 9a a3 8b bd
       -0.05758034 0.008860402 0.07212841 -0.06818314
0001f0 0a a7 cc 3a 1c 42 49 bd 93 7a e0 3d 84 0c 1a 3d
       0.0015613746 -0.049135312 0.10960879 0.037609592
000200 56 b3 28 3c 81 bf 8e 3c f4 be cc bd 25 56 e1 bc
       0.010296663 0.0174253 -0.09997359 -0.027506897
000210 8d b7 d9 bb 56 cb 93 bd dc 35 f0 bc 51 01 99 3b
       -0.0066441954 -0.072165176 -0.029322557 0.0046693464
000220 0a 34 f4 bd e3 bb 00 be 14 ce 48 bd aa a4 35 3c
       -0.11923988 -0.12571673 -0.049024656 0.011086622
000230 52 ea 0a 3e 03 d1 d3 3d 3a d0 9c bd 61 d8 9a bd
       0.13565949 0.103426 -0.076569036 -0.07560802
000240 60 42 b7 3d dd 1f eb bd 56 ca 2a 3d f5 3c 1e be
       0.08948207 -0.11480687 0.04169687 -0.15452941
000250 56 4b e7 bc 60 c0 46 bd e1 53 1d 3e 17 02 06 3e
       -0.028234165 -0.048523307 0.15364029 0.13086735
000260 77 5c 91 3d 2a 7d 4b 3d 33 d6 81 bc d7 07 8c bd
       0.070977144 0.049679913 -0.015849208 -0.06837433
000270 d4 ee 84 3d 56 da d8 3d 09 21 cb 3d 61 20 19 3e
       0.06490865 0.10588519 0.0991841 0.14953758
000280 10 8e a2 bc 32 d5 b4 bd 16 b9 bd bc c1 eb 13 be
       -0.019843131 -0.08829726 -0.023159545 -0.14445402
000290 41 22 e1 bd 07 80 01 3e 35 34 ab bc d5 55 f3 3d
       -0.109928615 0.12646495 -0.020898918 0.118816055
0002a0 78 b7 ec 3d 60 e2 05 bc f4 8b 0d 3e 98 63 29 3c
       0.115584314 -0.008171648 0.13822919 0.010338686
0002b0 e0 26 97 bd b6 10 11 3e 62 eb f6 bd 87 15 02 3d
       -0.07380462 0.14166531 -0.120566145 0.03175881
0002c0 ec 8e de 3d 41 45 12 be 98 c1 97 3c da c7 6c bd
       0.10867104 -0.14284231 0.01852493 -0.05780778
0002d0 d4 5d c2 bd e1 11 69 3d a1 a7 3d bd 32 72 08 3d
       -0.094905525 0.056901816 -0.04630244 0.03331203
0002e0 18 d2 dc bd e7 19 65 bc 15 f7 de bb e5 72 bf bd
       -0.1078226 -0.013983226 -0.006804357 -0.09348086
0002f0 d8 5a bd bd a8 33 89 3d b0 43 b8 ba 65 6c d7 3d
       -0.09245843 0.06699306 -0.0014058258 0.105187215
000300 46 eb 3b 3d 0a da 44 bc 4f fe 54 bd 60 cf c7 bb
       0.04587867 -0.012014875 -0.05200034 -0.006097719
000310 0e 75 13 3e 10 73 8f 3d 61 77 67 bd ce 5c 72 3c
       0.14400122 0.07004368 -0.056510333 0.014792634
000320 35 d4 01 be c1 91 98 3d ba a3 d3 3c 2d e0 84 bc
       -0.12678607 0.07449675 0.025834907 -0.016220177
000330 87 c9 74 3d 62 80 ac 3d 79 d6 01 3e 1f bc c9 3c
       0.059762504 0.084229246 0.12679471 0.024625836
000340 26 b0 ae 3d 5a 9f 6d bc 48 ca 30 bd 88 9c 66 bd
       0.085296914 -0.014503324 -0.04316166 -0.056301624
000350 b8 28 0f 3e b5 3e 63 3c cd eb 90 bd 71 b9 d2 3d
       0.13980377 0.013869931 -0.070762254 0.102892764
000360 c3 a7 48 bd 8a 8c 99 bd 07 4f fe 3d 7e 17 02 3e
       -0.048988115 -0.07497509 0.12417417 0.12704274
000370 18 26 11 bd 9e 42 6f 3d 64 0b 70 3d b9 01 17 3e
       -0.03543672 0.05841314 0.058604613 0.14746751
000380 bb ce 99 3d 5a fb a1 bd d4 16 ae bb 34 00 65 3d
       0.07510134 -0.0790927 -0.00531278 0.055908397
000390 2d 36 30 bd ed 02 c0 3d 07 84 b3 3d 2a e4 98 bc
       -0.043020416 0.09375558 0.087654166 -0.018663485
0003a0 f3 69 d4 3d 97 32 8c 3c 2d 07 1e 3d 24 89 85 bd
       0.10371771 0.017113967 0.038581062 -0.06520298
0003b0 01 91 3c 3d c2 22 0c 3e e7 40 96 3d 33 e1 0f 3e
       0.046036724 0.13685134 0.07336598 0.1405075
0003c0 38 5d dc 3d 5c 0d aa 3c 5a a9 0e 3e 5e 5f ec 3c
       0.107599676 0.020758323 0.1393179 0.028854068
0003d0 f7 c2 0b 3e 4b 9b 1b 3e 94 65 9a 3d 72 0e 14 bd
       0.13648592 0.15195958 0.07538906 -0.03614659
0003e0 ae 90 f6 3c 00 49 7a 3d 34 ab 28 bd 09 7a 12 3e
       0.030098286 0.061104774 -0.041178897 0.14304365
0003f0 7a 13 03 3d 19 b8 98 3c 3e c4 f8 bb 4c c3 d0 3d
       0.032000996 0.018642472 -0.0075917533 0.101935

lstm.weight_ih_l1 f4 [256, 64]
000000 c0 c8 2a 3d 18 a1 ad bd d7 f4 ea 3d b6 12 14 bd
       0.041695356 -0.08477992 0.11472481 -0.036150657
000010 46 49 55 3d fa 90 6c 3d ca 11 02 3d 1c a4 b8 bc
       0.052071832 0.057755448 0.031755246 -0.022539191
000020 04 ca 0b be 68 91 a0 bd ac 2b 88 3d ec 0f 0b 3e
       -0.13651282 -0.07840234 0.06648955 0.13580292
000030 95 b4 d6 3d 75 7f fe 3c db 93 01 be 53 f5 8d bd
       0.10483662 0.031066636 -0.12654059 -0.069315575
000040 ed c0 0f 3e 70 d5 46 bd 66 e7 97 3d 4a eb a0 3d
       0.14038439 -0.048543394 0.074171826 0.07857378
000050 f2 5b 3c 3d 73 3a d1 3a d2 40 0a bc a5 2b 1e 3d
       0.045986123 0.0015962854 -0.008438306 0.03861584
000060 0e 48 47 bc 4a a6 88 bc 12 ee 28 bd f5 95 ac 3d
       -0.012163175 -0.016680855 -0.041242667 0.084270395
000070 9b d6 fb 3c 53 64 2f bd 2b da 91 bc 03 da 51 3b
       0.03074198 -0.042820286 -0.017804226 0.0032020814
000080 00 59 9d 3d e1 4e a0 bd ca 75 47 3d e3 48 e9 bd
       0.07682991 -0.07827545 0.048696317 -0.11390855
000090 a2 29 03 bd 19 e3 a6 bd 0a 9f c8 bc c7 8a b4 bd
       -0.032022126 -0.08148784 -0.024489898 -0.08815532
0000a0 eb e1 e9 3d 0e d1 97 bd 0d 55 0d 3d 05 0a 04 3d
       0.114200436 -0.07412921 0.03450494 0.032236118
0000b0 22 84 7b bd 27 55 fb 3d ff 74 cd 3b b3 10 cc bd
       -0.06140531 0.12272101 0.0062700505 -0.099641226
0000c0 25 59 c4 3c 8d 16 c6 bd 4d 4c 5a bc 3b ff 14 bd
       0.023968289 -0.0967227 -0.013323856 -0.03637622
0000d0 ae 1b b2 bb a2 cc 04 be c8 d8 b2 bd bc 84 a3 3d
       -0.0054354286 -0.12968686 -0.08732754 0.079843014
0000e0 33 b0 9a bc 3b 90 c5 bd 99 70 ec 3d 17 a6 65 3d
       -0.018882846 -0.096466504 0.11544914 0.0560666
0000f0 09 c8 0e be 33 5e a9 3d 13 b4 db bd 3c 7c d4 bc
       -0.13943495 0.0826992 -0.10727706 -0.025938146
000100 6b 10 3c 3c 73 73 05 bd 6c bb f3 bd 36 5c b2 3d
       0.011478524 -0.032580804 -0.11900982 0.08708994
000110 57 ab 88 bd 42 7c ff 3b fa e0 8d 3d ed da e0 3d
       -0.066733055 0.007796795 0.069276765 0.10979257
000120 0f 14 0a be a6 f7 45 3d 1c f2 29 bd b3 3b bb 3d
       -0.13484214 0.04833188 -0.04149066 0.09142246
000130 a8 35 0a 3e 4a fa 0d 3e d0 23 20 be fc 15 1d be
       0.1349703 0.13865009 -0.15638661 -0.15340418
000140 e8 af d7 bc 18 b9 8f bd 37 24 44 3b 80 a6 1a bc
       -0.026328996 -0.07017726 0.0029928812 -0.009439111
000150 74 96 7b bd 38 cd a7 3d 3a 27 90 3d bb 06 ad 3c
       -0.06142278 0.08193439 0.07038732 0.021121373
000160 51 1c 48 bd d3 b1 ac bd 0e e1 2c 3d 80 59 9a bd
       -0.04885513 -0.08432355 0.042206816 -0.07536602
000170 0e 28 10 3d ea 84 f2 3c 10 8d 91 3d 44 03 3b 3c
       0.03519445 0.029604394 0.07106984 0.011414353
000180 8b f7 bc 3b 5b ed a5 bd 42 f9 49 bd c9 9d 9f 3d
       0.005766814 -0.081019126 -0.049309976 0.07793767
000190 40 ef ee bd b3 bc 9a 3a 15 71 0d 3e dd ad 35 3d
       -0.11666727 0.0011805504 0.13812669 0.044355262
0001a0 90 2d bb bc 48 e1 bc 3d dc 25 e1 3d 48 b8 87 3c
       -0.022848874 0.092226565 0.10993549 0.016567364
0001b0 20 44 58 3d c0 4c fc bc 7f 19 8a bd b7 15 70 bd
       0.052799344 -0.030798316 -0.06743144 -0.05861446
0001c0 b1 59 b2 bc b7 f2 27 3d 98 34 3f 3d 68 9a 44 3c
       -0.021771284 0.041002955 0.046681017 0.011999704
0001d0 dd 25 b1 bc 6f e1 6e bd 96 b1 85 3b 8c 07 6e bd
       -0.0216245 -0.05832046 0.004080008 -0.058112666
0001e0 3f 6c 3a 3d 38 0a 24 3d bc 39 05 3e d8 62 78 3d
       0.045513388 0.040048808 0.13010305 0.06064114
0001f0 1e 3a 7e 3d 99 f9 55 bd 27 16 04 be df c3 8c bc
       0.062067144 -0.052239988 -0.12899075 -0.017183242
000200 b1 8d d7 bb 67 87 0c 3c 01 93 0c 3d e0 08 08 be
       -0.00657817 0.008577204 0.03431988 -0.13284636
000210 46 8d 8f 3d ea 0f 1d bd 34 35 30 3d 5b 0f 32 bd
       0.07009368 -0.038345255 0.04301949 -0.043471675
000220 53 51 b8 3d c8 84 6c bd 09 5d 51 3d 37 3d a1 3d
       0.08999886 -0.057743818 0.051114116 0.07873004
000230 ce 98 e7 bc 2f e1 0a 3a af 30 a5 3d 11 2b d3 bd
       -0.028271105 0.0005297837 0.08065926 -0.10310949
000240 a0 ad e8 3d 8a 55 59 3c 68 1b b2 3d 3f f9 b5 3d
       0.11361241 0.013265023 0.086966336 0.088854305
000250 37 9f a1 3d d8 3e 04 3e f0 59 4c 3d f8 69 42 bd
       0.07891696 0.12914598 0.04989046 -0.04746434
000260 de fc c6 bd 16 72 0e bc 70 e7 80 bd a2 15 81 3c
       -0.09716199 -0.008694192 -0.06294143 0.015757386
000270 ee 16 27 bd df dd 96 3d 5f 9b c0 bb 53 c9 83 bd
       -0.04079335 0.07366537 -0.0058778967 -0.06434884
000280 9a 04 9a 3d 9b 31 1e 3c 99 9a cd bd 0d 2c 60 3d
       0.07520409 0.009655382 -0.10039253 0.05472951
000290 f9 e3 5b bd 9d de 6f bc fe d0 2f 3d a7 7f 50 bd
       -0.05368421 -0.0146404775 0.04292392 -0.05090299
0002a0 2f 6e 87 3d 53 10 11 3d 72 88 0e 3c 82 e8 57 3d
       0.06612813 0.03541596 0.008699523 0.05271197
0002b0 a9 95 bf bc 1a fd a5 bc 9e f1 fd bd 73 35 1a bd
       -0.023386793 -0.02026229 -0.123996004 -0.03764863
0002c0 e6 fa 88 3c d9 e9 b7 3d e3 6d a4 bd ce 47 48 bc
       0.0167212 0.0898015 -0.08028772 -0.012224151
0002d0 3c bb 2e 3d 49 2e 0e be dd e8 2f bc 07 f5 e7 3c
       0.04265903 -0.13884844 -0.010736671 0.02831508
0002e0 01 c1 95 3c df 79 02 bc 2a 2b 8a bd a8 d4 90 bd
       0.018280508 -0.007963627 -0.06746514 -0.07071811
0002f0 c8 93 3e 3d 3c c2 e2 3d 84 22 19 be 72 43 80 bd
       0.046527654 0.110722035 -0.14954573 -0.06262864
000300 ee 1e 91 3d a7 68 82 bc 94 0d 00 bd 87 af 59 bd
       0.070859775 -0.015919043 -0.03126295 -0.05314591
000310 95 5b ce 3d 04 54 ab bd 2b d1 74 3c 2f ba b8 3c
       0.10076062 -0.08365634 0.014942448 0.022549717
000320 6e 92 76 bd c8 b1 3a bd 47 58 75 bd 47 bc d2 3d
       -0.06019824 -0.0455797 -0.05989864 0.10289817
000330 28 41 87 3d 0f c9 c9 3d 1c 7d 4b 3c 85 69 3a bd
       0.066042244 0.09852802 0.012419965 -0.045510788
000340 dc ed 09 3e 9b 0c 56 3c 5f e6 41 3c 36 d2 a3 bd
       0.13469642 0.013064529 0.01183471 -0.07999079
000350 ef 0e f5 bc ff 2d c5 3c a3 50 14 3e 2e 92 99 3d
       -0.029914347 0.024069784 0.14483885 0.07498585
000360 b9 ce 1b 3d d6 16 8e 3d e5 0b c9 3a 2e c3 ef bd
       0.038038943 0.06937949 0.0015338628 -0.117071494
000370 b9 7d 57 bc 1a 51 0f bd 81 88 1b 3d 4f a5 94 bd
       -0.013152533 -0.034989454 0.037971977 -0.072580926
000380 f5 c2 e3 3c 5e 73 c3 3d b5 88 8f 3d cc 4c 9a bc
       0.027802924 0.09543489 0.07008497 -0.018835448
000390 6e 9a 8b bd 44 e4 5a bd 21 9c 9d bd d0 42 73 bd
       -0.068165645 -0.053440347 -0.07695795 -0.05938989
0003a0 5d b3 c1 bd 4d 84 15 bd d3 50 8a bd 04 f3 25 bd
       -0.09458039 -0.036503125 -0.06753697 -0.04051496
0003b0 aa e7 bb bd cc df 67 bd 0d 2f 91 bc 18 ac d8 bd
       -0.09175046 -0.056609914 -0.01772263 -0.10579699
0003c0 55 87 da 3d 74 e2 89 bc 0a d3 00 3e 9e 61 02 3d
       0.10670344 -0.016831614 0.12580505 0.031831376
0003d0 f9 67 88 3d 30 35 5a 3d f2 a1 af 3d a8 55 6b bd
       0.06660456 0.05327338 0.085758105 -0.057454735
0003e0 e8 df 0a 3d 76 46 14 be a7 60 a7 3d 43 16 04 be
       0.03390494 -0.14480004 0.08172732 -0.12899117
0003f0 f0 f1 4d 39 06 ba 14 3e 2f ac 8f 3d 2b ba 8f bc
       0.00019640452 0.14524087 0.07015263 -0.017544826

lstm.weight_hh_l1 f4 [256, 64]
000000 01 28 c2 3a a3 87 86 3c 0b 39 b7 3c 28 f6 91 3d
       0.0014812947 0.016422099 0.022366067 0.07127029
000010 08 ab 07 bd 5a ed bc bd 7c f7 d9 3c 6f 07 97 3d
       -0.033122092 -0.09224959 0.026607268 0.07374465
000020 03 10 a0 3a 47 1b 38 3d 5b 3b 3d bc 1e 24 e9 3d
       0.0012211803 0.04494789 -0.011549796 0.11383842
000030 5b 45 a3 3d 81 36 af bd 06 4a 11 bd b3 0a 87 3d
       0.07972213 -0.08555318 -0.035470985 0.065938376
000040 bd 47 a1 bd bf b3 99 3c 4c 4f 0d 3e cf bc 03 3c
       -0.07875011 0.018762467 0.1379978 0.008040621
000050 76 65 b8 bd b9 bc 73 3d 85 9f 06 be d7 5a 94 bd
       -0.09003727 0.05950615 -0.1314679 -0.07243889
000060 c6 78 81 bd f1 71 9a bc ec dc ff 3d dd 89 fe 3d
       -0.06321864 -0.01885316 0.124933094 0.12428639
000070 e5 cb 7c bc a4 c8 75 3d e7 f7 2b bc f2 cd d3 bd
       -0.015429472 0.0600058 -0.010496116 -0.10342015
000080 f7 eb 8a bd 7d 99 69 3d 9b c6 33 3d c5 f9 01 be
       -0.06783288 0.057031143 0.043890577 -0.12692936
000090 8e fb e9 3c f8 59 77 3c 99 86 07 3e 40 ab 88 3d
       0.028562333 0.015097134 0.13234939 0.06673288
0000a0 8f 0f fa 3c ae 2a 1a 3e ef a7 db bd aa 46 18 be
       0.030524997 0.15055344 -0.1072539 -0.14870706
0000b0 a4 ab c1 3d 81 d4 ce bb 8b 1c 33 3c 0c cf 02 be
       0.09456566 -0.0063119535 0.010932098 -0.12774295
0000c0 da 45 b8 bd a8 fc b5 bd df 15 2a bd ba 77 5b 3d
       -0.08997698 -0.08886081 -0.041524764 0.053580977
0000d0 31 61 d7 bd 65 18 17 be 9f c6 86 bd 5d d7 4a 3b
       -0.10516585 -0.147554 -0.06580853 0.003095112
0000e0 e0 4d 0e 3e 64 6c 83 bd a2 09 69 3d ec 3e ed 3d
       0.13896894 -0.06417158 0.056893952 0.11584267
0000f0 38 d6 93 3d fc fd a3 bc 00 e1 f8 ba c3 ee c3 3b
       0.07218593 -0.02001857 -0.0018987954 0.0059793903
000100 9d 38 17 bd 41 45 46 3d 12 5e da 3d a4 85 42 3d
       -0.036919225 0.04840589 0.10662474 0.04749073
000110 47 68 0c be c5 da 46 bd 2f 43 d9 bd 28 bd 8b bd
       -0.13711654 -0.04854848 -0.106085174 -0.06823188
000120 e7 52 09 be 78 77 01 bc 8a db bc bd 62 fb f4 3d
       -0.13410531 -0.007902019 -0.09221561 0.1196201
000130 ff fb 33 3c d1 20 b6 bd 75 7c ae 3c 9b cc 65 bd
       0.0109853735 -0.08892978 0.02129958 -0.05610333
000140 2e fb 8f 3d 9b a9 0a 3d 17 03 cf 3d f5 f7 bd bd
       0.070303306 0.033853155 0.10108011 -0.0927581
000150 26 9e d9 3c ce 99 bb bd 95 c9 3e bd 4f 6d be bc
       0.026564669 -0.09160195 -0.046578962 -0.023245482
000160 08 99 1c 3d c6 15 b2 3c 13 fb 3a bd 2c 87 29 3b
       0.03823188 0.021738898 -0.0456496 0.0025867922
000170 61 d8 00 be 26 d1 46 3d 96 3f 88 3d ef 46 08 be
       -0.12582542 0.048539303 0.06652753 -0.13308309
000180 08 4a ea 3d 27 be 01 be 63 bb f6 3d c4 df c8 3d
       0.114399016 -0.12670194 0.1204746 0.09808305
000190 4c fb 00 be f1 68 c9 3c 83 15 cf 3c 50 e7 91 3d
       -0.12595862 0.024586173 0.025278812 0.071241975
0001a0 50 6d 02 3d 94 f2 4c 3d e4 32 02 bd 74 1e 79 bb
       0.03184253 0.050036028 -0.031786814 -0.0038012536
0001b0 09 e3 42 3a aa 6d 7d 3d 66 85 a2 bd fb a9 8e 3c
       0.00074343436 0.061872162 -0.079356 0.017415037
0001c0 7d b5 5c bd 3c 6a 88 bd f4 f7 ae bd 81 1f 10 3d
       -0.05388402 -0.066608876 -0.08543387 0.035186294
0001d0 f2 66 9f bd 7e 2b b3 bd 82 53 c8 3d 51 d8 f1 3d
       -0.07783307 -0.0874853 0.09781553 0.11808837
0001e0 21 aa b0 3d ac 01 1e bc d5 93 6c bd 12 84 20 3e
       0.086261995 -0.009643953 -0.05775817 0.15675381
0001f0 20 53 f1 bd 6f da fd 3c 4b 83 23 bd 6a 5e 06 be
       -0.11783433 0.030987946 -0.039920133 -0.13121954
000200 a8 0c 01 3e 28 94 57 bd 24 16 36 bd 1e 33 ae bc
       0.12602484 -0.052631527 -0.04445471 -0.021264609
000210 67 d7 2c bc e9 43 06 be 38 56 ab bc 80 0d 26 3d
       -0.010549403 -0.13111843 -0.020915136 0.04054022
000220 8e e5 93 bd b6 3e e2 3c 2c 31 b5 3d 29 53 26 3d
       -0.072215185 0.027617794 0.088472694 0.04060665
000230 bd 15 6d 3d 55 15 9c 3c ae 46 ac 3b 3d 54 21 3e
       0.05788206 0.01905314 0.005257449 0.1575479
000240 76 82 3b bd fd 72 21 3d d9 31 b5 bd df 68 03 3e
       -0.045778714 0.039416302 -0.08847398 0.12832974
000250 9f 51 83 bd 7e 1a 94 bd 78 ec aa bd 3b 1e 8a bd
       -0.06412052 -0.072316155 -0.08345884 -0.06744047
000260 8d fc dd 3d 18 78 9b 3d be 77 4f bd 86 40 98 bd
       0.10839186 0.075912654 -0.050651304 -0.07434182
000270 98 8d 00 be 76 ae 1e 3e 99 c5 82 3d 9f 67 4c 3d
       -0.12554014 0.15496239 0.06385345 0.04990351
000280 33 e7 32 bd cb 60 c7 bc e4 a5 61 bd 80 62 3b bd
       -0.04367752 -0.024338147 -0.055089846 -0.045748234
000290 2f 1e f8 bd b3 2b ba bd 88 73 b8 3d 0c 70 ae 3d
       -0.12115132 -0.09090366 0.09006411 0.08517465
0002a0 4a ef c7 3d 7f 00 80 bd c0 92 41 3c ba 74 1c be
       0.09762438 -0.062500946 0.011814773 -0.15278903
0002b0 d0 a5 a6 bd 15 ad 9a 3c ef b0 d5 3d d2 81 d1 bd
       -0.08137095 0.01888136 0.10434138 -0.102298394
0002c0 c7 32 58 3d b8 f0 43 bd 83 15 74 bd 08 16 50 bc
       0.0527828 -0.04783699 -0.059590828 -0.012700565
0002d0 f5 c3 60 3d a2 10 d2 3c e0 f9 16 bd dd ac 11 3e
       0.05487438 0.025642697 -0.036859393 0.14226098
0002e0 a7 67 2b bd 38 8c 07 3e 5d 8f d7 bd 7b 4f 7d 3d
       -0.041846897 0.13237083 -0.10525391 0.061843377
0002f0 ef a9 98 bd d3 b1 9e bd 91 d2 0e bd 51 6d d7 3a
       -0.07454287 -0.07748761 -0.03486878 0.0016435777
000300 7a 3e cb 3d 55 a6 bf bd 9b d4 07 3e c6 1a e7 3d
       0.09924026 -0.09357897 0.13264696 0.112844035
000310 1a ef df bd e1 85 0e be 98 e3 de 3c 1a 8a 71 3d
       -0.10934277 -0.13918258 0.027208135 0.058969595
000320 6a ec b9 3d 3c 17 71 3b 05 ad b0 bc 3f 54 9d bb
       0.090782955 0.003678753 -0.021566877 -0.0048013027
000330 d5 3d 85 3d 20 85 5b bc 6e 30 9a 3d 9b 15 60 3d
       0.06505934 -0.013398439 0.075287685 0.054708105
000340 4a 8b 04 bc 75 f1 d7 3d 99 d0 55 3c 84 b5 4a bd
       -0.00808985 0.10544101 0.013050222 -0.049489513
000350 c7 07 a6 3c 3f e6 17 3d e2 18 a8 bc d0 6c 05 3d
       0.02026738 0.037084814 -0.020519678 0.032574475
000360 49 78 de 3d cb 84 8b bd 18 ce be 3d 42 8b ca 3d
       0.10862786 -0.068124376 0.09316653 0.098898426
000370 08 cf b0 3d 48 b0 5c 3c 98 90 64 3c a5 aa 81 3d
       0.08633238 0.013469763 0.013950489 0.06331376
000380 86 eb b9 3d f8 8f b1 bd e7 1f e6 bd 33 a7 b4 bd
       0.09078126 -0.08670038 -0.11236554 -0.08820953
000390 b7 ac ac 3d e5 36 51 bd 47 8a b9 3a 6c d3 09 3e
       0.0843138 -0.051077742 0.001415559 0.13459557
0003a0 e3 4a 1d 3e fc bf 15 3e 99 b0 9b 3d 23 a9 68 bd
       0.15360598 0.14624017 0.07602043 -0.056801926
0003b0 f0 58 84 bd d2 95 79 3d 81 4c 56 bd c0 51 e4 bc
       -0.06462276 0.060933895 -0.052319054 -0.027871013
0003c0 bd 54 d9 3d d6 8c fb 3b 1d 82 a3 bd d2 b3 8c bd
       0.10611866 0.007676701 -0.079838015 -0.068702355
0003d0 72 b2 c4 3d 00 a9 a5 bd fa 85 d2 bd cd 8f 84 3d
       0.09604348 -0.08088875 -0.1027946 0.0647274
0003e0 48 0a 02 3e 68 3c 97 bd a5 04 a3 3b 63 1f b4 3d
       0.12699234 -0.073845685 0.004974919 0.08795049
0003f0 a3 c5 ba bd 84 57 71 3c fc 2d d9 bd b3 bb 05 be
       -0.091197275 0.014730338 -0.10604474 -0.13059883

lstm.bias_ih_l1 f4 [256]
000000 ed 8b 36 3d 14 16 c7 bd 37 13 bf 3a c3 e8 e3 3d
       0.044567037 -0.09721008 0.001457787 0.1112838
000010 14 bf 94 bc c0 0f bf bd 60 0d 79 bd 02 89 a8 bd
       -0.01815752 -0.09329176 -0.06080377 -0.08229257
000020 7a 6a 78 bd 46 87 8e 3d d8 6c 16 bd 72 cc 32 3d
       -0.06064842 0.06959395 -0.036724895 0.043652005
000030 81 c5 13 3d 35 c2 2d 3d 1b 51 38 3d d1 f5 b6 bc
       0.036077026 0.04242154 0.044999223 -0.022334011
000040 5c a0 97 bd ba c4 02 bc b3 f4 f7 bc 49 e3 ca 3d
       -0.07403633 -0.007981474 -0.030268049 0.099066325
000050 9e 75 8d 3d f1 74 96 bd c6 9d a8 3d 30 84 09 3e
       0.06907199 -0.073465236 0.08233218 0.13429332
000060 68 cd 89 bd df ba 2f bc d4 f9 4f bd 4f 6e 47 39
       -0.06728631 -0.010725706 -0.050775364 0.00019019212
000070 07 84 a7 3d 22 d0 e0 3d e5 30 ca 3d 54 06 ab 3d
       0.08179479 0.10977198 0.09872607 0.08350816
000080 d3 78 25 3d 13 50 64 bd 6a e8 c1 bb 7f 46 9f bd
       0.04039843 -0.055740427 -0.0059175985 -0.07777118
000090 eb ab 11 3e aa 92 21 bc 32 5a b1 3d 02 2c 1f 3e
       0.14225738 -0.009861628 0.086597815 0.15544131
0000a0 1c 51 4d bd 35 45 7d bc 5a 6e 99 3c f4 64 03 3e
       -0.05012618 -0.015458395 0.018729378 0.1283148
0000b0 a1 47 09 3e a6 09 b5 3d 9f b7 96 3d 7d 02 c5 bd
       0.1340623 0.08839731 0.07359242 -0.09619615
0000c0 79 3b 0a 3e 32 2b f0 bd 59 70 b1 3d 40 79 fa 3c
       0.1349925 -0.11726989 0.08664007 0.030575395
0000d0 84 dc de 3d fc 82 79 3d 13 a4 4b 3b bc 5f 34 bd
       0.10881904 0.060915932 0.0031073138 -0.044036612
0000e0 5a 96 86 bd e3 71 7f bc f9 4f ad 3d 58 1f 95 39
       -0.06571646 -0.015591118 0.08462519 0.00028442848
0000f0 c4 e1 fe 3d f6 22 6d 3a 6a d1 09 3d 0c 26 b6 bd
       0.12445405 0.0009046042 0.03364698 -0.088939756
000100 ac f1 a4 3d a7 dd b4 3b 30 f6 9e bd d7 d5 a7 bd
       0.08053908 0.005519587 -0.077618 -0.081950836
000110 e0 e0 85 3d 2f e3 10 3d 17 2f b2 3d e0 21 9c bc
       0.06537032 0.03537291 0.08700388 -0.019059122
000120 c9 5b f2 3d 66 32 f4 3d e4 06 0c 3e 1e c7 fe 3d
       0.11833913 0.11923675 0.13674504 0.12440322
000130 b3 98 4f bd f6 fd 66 3d 1d 30 ad 3c ef 14 b5 bd
       -0.050682735 0.05639454 0.021141106 -0.088418834
000140 d4 06 e4 3d 98 99 82 3d 9f 3a a2 bc a8 aa c8 3d
       0.11134115 0.06376952 -0.019803343 0.09798175
000150 a5 20 88 3d 42 06 8d 3c 17 1c 10 3e f4 c9 d6 3d
       0.066468515 0.017214898 0.14073215 0.10487738
000160 6d d0 63 bd 4e 4e 92 bb 9d 67 b3 bd 6c 7b 97 bd
       -0.055618692 -0.004464901 -0.08759997 -0.07396588
000170 b8 58 16 3d 90 4d ef 3d 2f 22 99 3d 87 14 f0 3d
       0.036705703 0.11684716 0.07477223 0.11722665
000180 5c cd 65 bd 0a 94 1a 3e e5 ee e8 bc 6d ee f9 bb
       -0.05610405 0.15095535 -0.028434226 -0.0076272995
000190 87 9c f1 3d e2 16 8c bd cd e3 b6 3d 9f 6b de 3d
       0.11797433 -0.06840302 0.08930168 0.10860371
0001a0 c0 7f 10 3e 0f 31 f6 3d 92 d4 f1 bd 9a be 15 3d
       0.14111233 0.12021076 -0.11808123 0.036558725
0001b0 53 f8 f0 3d e3 72 9e 3d d6 a6 30 bd a8 da 2b 3d
       0.11766114 0.07736757 -0.043127857 0.041956574
0001c0 66 05 2f bc b8 61 7f 3d e1 59 bd 3c 5c b3 f0 3d
       -0.010682439 0.06234905 0.023114147 0.1175296
0001d0 89 c6 d4 bd 23 66 12 bc bf c3 03 3e 59 bd ba 3d
       -0.1038943 -0.008935484 0.1286764 0.091181464
0001e0 ee f2 5b 3d b7 cb 15 bd c4 bd 71 3c 17 be 8c bd
       0.053698473 -0.03657123 0.014754716 -0.06872194
0001f0 eb d3 45 3c 66 59 ba 3c cb 6f 91 3d 8c 98 1b 3e
       0.012074451 0.022747707 0.07101401 0.15194911
000200 68 5e af bc d9 94 f9 3d fe 84 bd 3d fa f6 d6 3d
       -0.021407321 0.121865936 0.09253882 0.10496326
000210 ba fd 86 3a ae db ec bd 7b be ee bb 75 28 b2 3d
       0.0010299005 -0.11565338 -0.0072858906 0.08699123
000220 7d 1c 56 3d a7 46 23 3c 4e 1e 16 3e c8 ef 51 3d
       0.052273262 0.009965575 0.14659998 0.051254064
000230 c5 1e ac 3d 1f cc bf bd af d3 3e 3d 2f 81 14 3d
       0.08404306 -0.09365105 0.046588596 0.03625601
000240 3e e4 ca bd b3 3d 59 bd e1 0a 93 bd b7 d5 9e 3d
       -0.09906815 -0.053037357 -0.07179809 0.077556066
000250 1c 42 b3 bd b9 20 94 bd ed 98 3b 3d ea ea 00 3e
       -0.08752844 -0.07232804 0.04580014 0.12589613
000260 e1 39 91 bd 58 a8 59 bd 01 18 87 3d 40 16 65 bd
       -0.07091118 -0.05313906 0.06596375 -0.055929422
000270 f9 c5 d2 bd 4c 7f 8e 39 8c c3 ac 3d 61 77 e1 bd
       -0.102916665 0.00027179194 0.08435735 -0.11009098
000280 ec 7f 0e 3e c0 6a 11 3d 79 45 b6 b9 8a 2c 0f bd
       0.13915986 0.035502195 -0.00034765506 -0.034954585
000290 21 a9 8a bd 2d 4d 8f 3d 14 a7 1d 3d 84 33 ab bd
       -0.0677054 0.06997142 0.038489416 -0.08359435
0002a0 f7 35 04 bd 64 da ec 3d 6a c3 b7 3d 64 ef d9 bd
       -0.032278027 0.11565092 0.08972819 -0.10641363
0002b0 64 c3 14 be 86 25 33 3c 87 28 ae 3d ad 0c 55 bd
       -0.1452766 0.010934239 0.08503824 -0.05201404
0002c0 80 3c b2 3d 5e ee a9 3d 1d d0 64 3d 54 0c 92 bd
       0.08702946 0.08297418 0.055862535 -0.07131258
0002d0 7e 28 9b 3c 90 b3 a3 bd 88 1f d5 bd 7d 03 3d 3d
       0.018940207 -0.07993233 -0.10406405 0.046145905
0002e0 a8 2e d5 3d 08 9d 4a 3d 45 7d 05 be b5 65 28 3b
       0.104092896 0.049466163 -0.13036068 0.0025695388
0002f0 ca e9 f6 bd 25 99 b9 bd 52 9b 9c bd cc e7 fd 3c
       -0.120563105 -0.09062413 -0.076468125 0.030994318
000300 12 8a 16 3e 0b fb 79 bd 1b e2 9b 3d 48 df 2c 3e
       0.14701107 -0.06103043 0.076114856 0.1688205
000310 08 e1 19 3e bc 4a 24 bd 9b 3e c8 3c 56 da 28 3e
       0.15027249 -0.040110335 0.024443915 0.16489539
000320 4c 2e 30 3e 59 f7 bf 3a 00 0a 72 bd b4 54 39 bd
       0.17205161 0.0014645859 -0.059091568 -0.045246795
000330 11 13 df 3d d8 a1 7e 3c df 13 00 3e af f1 98 bd
       0.108923085 0.015541516 0.1250758 -0.074679725
000340 04 7a 31 3e 6d e1 12 3d 34 68 33 3e 6e 89 44 3e
       0.17331702 0.035859514 0.17520219 0.1919305
000350 eb 46 75 3d 06 f0 07 3d 11 59 9b 3d 02 69 44 bd
       0.059882086 0.03318789 0.075853474 -0.047951706
000360 10 ac 3e bd ea f5 9d bd aa 27 51 3c 18 a7 bf 3d
       -0.04655081 -0.0771292 0.012765804 0.093580425
000370 72 67 8b 3d 3d 1b e8 bc 75 90 61 bd 87 dd 3f 3d
       0.0680684 -0.0283333 -0.055069406 0.046842124
000380 89 6c c8 3d 9a 92 3e bd e4 7d 04 3e e8 9a c6 bc
       0.097863264 -0.04652653 0.12938648 -0.024243787
000390 4a cd c3 3d 0e 39 17 3e cf 9d d4 3d 27 a2 81 bc
       0.0956064 0.14767858 0.10381662 -0.01582439
0003a0 7a 36 21 3e d3 8c 69 3d 9a 7f fa 3d 28 31 61 3d
       0.15743437 0.057019066 0.12231369 0.05497852
0003b0 82 fc 7d 3a 74 62 8d bd 83 7e 8a 3b a6 75 30 3d
       0.00096888107 -0.06903544 0.004226507 0.04308095
0003c0 7b 95 b7 3c 6d 19 d7 3d 13 72 fe 3d 59 79 83 bd
       0.022410145 0.105028965 0.12424102 -0.064196296
0003d0 98 fe 73 bc c5 38 fb 3d 90 35 14 3e 8f b8 32 3d
       -0.014892243 0.12266687 0.14473557 0.04363304
0003e0 de 1b 02 bd 64 50 50 3d 03 a4 89 bc 68 15 4a 3d
       -0.031764857 0.050857916 -0.01680184 0.04933682
0003f0 07 e4 09 3e 2a 99 0b 3d 66 e0 b0 3d d5 06 9d 3d
       0.13465892 0.034081616 0.086365506 0.07667319
